…
       'T1033', 'T1036.005', 'T1041', 'T1047', 'T1053.005', 'T1055',
       'T1056.001', 'T1057', 'T1059.003', 'T1068', 'T1070.004',
       'T1071.001', 'T1072', 'T1074.001', 'T1078', 'T1082', 'T1083',
       'T1090', 'T1095', 'T1105', 'T1106', 'T1110', 'T1112', 'T1113',
       'T1140', 'T1190', 'T1204.002', 'T1210', 'T1218.011', 'T1219',
       'T1484.001', 'T1518.001', 'T1543.003', 'T1547.001', 'T1548.002',
       'T1552.001', 'T1557.001', 'T1562.001', 'T1564.001', 'T1566.001',
       'T1569.002', 'T1570', 'T1573.001', 'T1574.002'], dtype=object)]
BertForSequenceClassification(
  (bert): BertModel(
    (embeddings): BertEmbeddings(
      (word_embeddings): Embedding(31090, 768, padding_idx=0)
      (position_embeddings): Embedding(512, 768)
      (token_type_embeddings): Embedding(2, 768)
      (LayerNorm): LayerNorm((768,), eps=1e-12, elementwise_affine=True)
      (dropout): Dropout(p=0.1, inplace=False)
    )
    (encoder): BertEncoder(
      (layer): ModuleList(
        (0-11): 12 x BertLayer(
          (attention): BertAttention(
            (self): BertSelfAttention(
              (query): Linear(in_features=768, out_features=768, bias=True)
              (key): Linear(in_features=768, out_features=768, bias=True)
              (value): Linear(in_features=768, out_features=768, bias=True)
              (dropout): Dropout(p=0.1, inplace=False)
            )
            (output): BertSelfOutput(
              (dense): Linear(in_features=768, out_features=768, bias=True)
              (LayerNorm): LayerNorm((768,), eps=1e-12, elementwise_affine=True)
              (dropout): Dropout(p=0.1, inplace=False)
            )
          )
          (intermediate): BertIntermediate(
            (dense): Linear(in_features=768, out_features=3072, bias=True)
            (intermediate_act_fn): GELUActivation()
          )
          (output): BertOutput(
            (dense): Linear(in_features=3072, out_features=768, bias=True)
            (LayerNorm): LayerNorm((768,), eps=1e-12, elementwise_affine=True)
            (dropout): Dropout(p=0.1, inplace=False)
          )
        )
      )
    )
    (pooler): BertPooler(
      (dense): Linear(in_features=768, out_features=768, bias=True)
      (activation): Tanh()
    )
  )
  (dropout): Dropout(p=0.1, inplace=False)
  (classifier): Linear(in_features=768, out_features=50, bias=True)
)
tensor([[  102,   238,   348,  ...,     0,     0,     0],
        [  102,   111, 19912,  ...,     0,     0,     0],
        [  102,   111,  1542,  ...,     0,     0,     0],
        ...,
        [  102,   111, 26172,  ...,     0,     0,     0],
        [  102,   501,   168,  ...,     0,     0,     0],
        [  102,   168,   624,  ...,     0,     0,     0]])
…
