…
2  For more information on CrowdStrike’s proactiv...       []
3  NotPetya combines ransomware with the ability ...       []
4  It spreads to Microsoft Windows machines using...  [T1210]
5  This is the same vulnerability Microsoft repor...       []
6  Once a machine is infected by NotPetya, a seri...  [T1570]
7                             Do NOT pay the ransom.       []
8  No files will be recovered if the ransom is pa...       []
9                                     Dropped Files        []
BertForSequenceClassification(
  (bert): BertModel(
    (embeddings): BertEmbeddings(
      (word_embeddings): Embedding(31090, 768, padding_idx=0)
      (position_embeddings): Embedding(512, 768)
      (token_type_embeddings): Embedding(2, 768)
      (LayerNorm): LayerNorm((768,), eps=1e-12, elementwise_affine=True)
      (dropout): Dropout(p=0.1, inplace=False)
    )
    (encoder): BertEncoder(
      (layer): ModuleList(
        (0-11): 12 x BertLayer(
          (attention): BertAttention(
            (self): BertSelfAttention(
              (query): Linear(in_features=768, out_features=768, bias=True)
              (key): Linear(in_features=768, out_features=768, bias=True)
              (value): Linear(in_features=768, out_features=768, bias=True)
              (dropout): Dropout(p=0.1, inplace=False)
            )
            (output): BertSelfOutput(
              (dense): Linear(in_features=768, out_features=768, bias=True)
              (LayerNorm): LayerNorm((768,), eps=1e-12, elementwise_affine=True)
              (dropout): Dropout(p=0.1, inplace=False)
            )
          )
          (intermediate): BertIntermediate(
            (dense): Linear(in_features=768, out_features=3072, bias=True)
            (intermediate_act_fn): GELUActivation()
          )
          (output): BertOutput(
            (dense): Linear(in_features=3072, out_features=768, bias=True)
            (LayerNorm): LayerNorm((768,), eps=1e-12, elementwise_affine=True)
            (dropout): Dropout(p=0.1, inplace=False)
          )
        )
      )
    )
    (pooler): BertPooler(
      (dense): Linear(in_features=768, out_features=768, bias=True)
      (activation): Tanh()
    )
  )
  (dropout): Dropout(p=0.1, inplace=False)
  (classifier): Linear(in_features=768, out_features=50, bias=True)
)
tensor([[  102,  6123,  1098,  ...,     0,     0,     0],
        [  102,   603,   130,  ...,     0,     0,     0],
        [  102,   860,   370,  ...,     0,     0,     0],
        ...,
        [  102, 12106, 30137,  ...,     0,     0,     0],
        [  102,   781,   111,  ...,     0,     0,     0],
        [  102,  2869,   911,  ...,     0,     0,     0]])
…
