…
2  For more information on CrowdStrike’s proactiv...       []
3  NotPetya combines ransomware with the ability ...       []
4  It spreads to Microsoft Windows machines using...  [T1210]
5  This is the same vulnerability Microsoft repor...       []
6  Once a machine is infected by NotPetya, a seri...  [T1570]
7                             Do NOT pay the ransom.       []
8  No files will be recovered if the ransom is pa...       []
9                                     Dropped Files        []
BertForSequenceClassification(
  (bert): BertModel(
    (embeddings): BertEmbeddings(
      (word_embeddings): Embedding(1124, 32, padding_idx=0)
      (position_embeddings): Embedding(512, 32)
      (token_type_embeddings): Embedding(16, 32)
      (LayerNorm): LayerNorm((32,), eps=1e-12, elementwise_affine=True)
      (dropout): Dropout(p=0.1, inplace=False)
    )
    (encoder): BertEncoder(
      (layer): ModuleList(
        (0-4): 5 x BertLayer(
          (attention): BertAttention(
            (self): BertSelfAttention(
              (query): Linear(in_features=32, out_features=32, bias=True)
              (key): Linear(in_features=32, out_features=32, bias=True)
              (value): Linear(in_features=32, out_features=32, bias=True)
              (dropout): Dropout(p=0.1, inplace=False)
            )
            (output): BertSelfOutput(
              (dense): Linear(in_features=32, out_features=32, bias=True)
              (LayerNorm): LayerNorm((32,), eps=1e-12, elementwise_affine=True)
              (dropout): Dropout(p=0.1, inplace=False)
            )
          )
          (intermediate): BertIntermediate(
            (dense): Linear(in_features=32, out_features=37, bias=True)
            (intermediate_act_fn): GELUActivation()
          )
          (output): BertOutput(
            (dense): Linear(in_features=37, out_features=32, bias=True)
            (LayerNorm): LayerNorm((32,), eps=1e-12, elementwise_affine=True)
            (dropout): Dropout(p=0.1, inplace=False)
          )
        )
      )
    )
    (pooler): BertPooler(
      (dense): Linear(in_features=32, out_features=32, bias=True)
      (activation): Tanh()
    )
  )
  (dropout): Dropout(p=0.1, inplace=False)
  (classifier): Linear(in_features=32, out_features=50, bias=True)
)
tensor([[  2,  51, 801,  ...,   0,   0,   0],
        [  2,  62, 803,  ...,   0,   0,   0],
        [  2,  46, 805,  ...,   0,   0,   0],
        ...,
        [  2,  51, 801,  ...,   0,   0,   0],
        [  2,  65, 790,  ...,   0,   0,   0],
        [  2,  43, 806,  ...,   0,   0,   0]])
tensor([[0., 0., 0.,  ..., 0., 0., 0.],
        [0., 0., 0.,  ..., 0., 0., 1.],
…
