…
2  It spreads to Microsoft Windows machines using...      T1210
3                   SMB exploitation via EternalBlue      T1210
4                 SMBv1 Exploitation via EternalBlue      T1210
5  has the capability to exploit SMBv1 via the we...      T1210
6                      SMB copy and remote execution      T1570
7  This thread is then used to execute the SMB co...      T1570
8                      SMB copy and remote execution      T1570
9                      SMB Copy and Remote Execution      T1570
BertForSequenceClassification(
  (bert): BertModel(
    (embeddings): BertEmbeddings(
      (word_embeddings): Embedding(1124, 32, padding_idx=0)
      (position_embeddings): Embedding(512, 32)
      (token_type_embeddings): Embedding(16, 32)
      (LayerNorm): LayerNorm((32,), eps=1e-12, elementwise_affine=True)
      (dropout): Dropout(p=0.1, inplace=False)
    )
    (encoder): BertEncoder(
      (layer): ModuleList(
        (0-4): 5 x BertLayer(
          (attention): BertAttention(
            (self): BertSelfAttention(
              (query): Linear(in_features=32, out_features=32, bias=True)
              (key): Linear(in_features=32, out_features=32, bias=True)
              (value): Linear(in_features=32, out_features=32, bias=True)
              (dropout): Dropout(p=0.1, inplace=False)
            )
            (output): BertSelfOutput(
              (dense): Linear(in_features=32, out_features=32, bias=True)
              (LayerNorm): LayerNorm((32,), eps=1e-12, elementwise_affine=True)
              (dropout): Dropout(p=0.1, inplace=False)
            )
          )
          (intermediate): BertIntermediate(
            (dense): Linear(in_features=32, out_features=37, bias=True)
            (intermediate_act_fn): GELUActivation()
          )
          (output): BertOutput(
            (dense): Linear(in_features=37, out_features=32, bias=True)
            (LayerNorm): LayerNorm((32,), eps=1e-12, elementwise_affine=True)
            (dropout): Dropout(p=0.1, inplace=False)
          )
        )
      )
    )
    (pooler): BertPooler(
      (dense): Linear(in_features=32, out_features=32, bias=True)
      (activation): Tanh()
    )
  )
  (dropout): Dropout(p=0.1, inplace=False)
  (classifier): Linear(in_features=32, out_features=2, bias=True)
)
tensor([[  2,  51, 813,  ...,   0,   0,   0],
        [  2,  63, 804,  ...,   0,   0,   0],
        [  2,  55, 792,  ...,   0,   0,   0],
        ...,
        [  2,  47, 801,  ...,   0,   0,   0],
        [  2,  62, 803,  ...,   0,   0,   0],
        [  2,  58, 795,  ...,   0,   0,   0]])
tensor([[0., 0., 0.,  ..., 0., 0., 0.],
        [0., 0., 0.,  ..., 0., 0., 0.],
…
