…
2  It spreads to Microsoft Windows machines using...      T1210
3                   SMB exploitation via EternalBlue      T1210
4                 SMBv1 Exploitation via EternalBlue      T1210
5  has the capability to exploit SMBv1 via the we...      T1210
6                      SMB copy and remote execution      T1570
7  This thread is then used to execute the SMB co...      T1570
8                      SMB copy and remote execution      T1570
9                      SMB Copy and Remote Execution      T1570
BertForSequenceClassification(
  (bert): BertModel(
    (embeddings): BertEmbeddings(
      (word_embeddings): Embedding(30522, 768, padding_idx=0)
      (position_embeddings): Embedding(512, 768)
      (token_type_embeddings): Embedding(2, 768)
      (LayerNorm): LayerNorm((768,), eps=1e-12, elementwise_affine=True)
      (dropout): Dropout(p=0.1, inplace=False)
    )
    (encoder): BertEncoder(
      (layer): ModuleList(
        (0-11): 12 x BertLayer(
          (attention): BertAttention(
            (self): BertSelfAttention(
              (query): Linear(in_features=768, out_features=768, bias=True)
              (key): Linear(in_features=768, out_features=768, bias=True)
              (value): Linear(in_features=768, out_features=768, bias=True)
              (dropout): Dropout(p=0.1, inplace=False)
            )
            (output): BertSelfOutput(
              (dense): Linear(in_features=768, out_features=768, bias=True)
              (LayerNorm): LayerNorm((768,), eps=1e-12, elementwise_affine=True)
              (dropout): Dropout(p=0.1, inplace=False)
            )
          )
          (intermediate): BertIntermediate(
            (dense): Linear(in_features=768, out_features=3072, bias=True)
            (intermediate_act_fn): GELUActivation()
          )
          (output): BertOutput(
            (dense): Linear(in_features=3072, out_features=768, bias=True)
            (LayerNorm): LayerNorm((768,), eps=1e-12, elementwise_affine=True)
            (dropout): Dropout(p=0.1, inplace=False)
          )
        )
      )
    )
    (pooler): BertPooler(
      (dense): Linear(in_features=768, out_features=768, bias=True)
      (activation): Tanh()
    )
  )
  (dropout): Dropout(p=0.1, inplace=False)
  (classifier): Linear(in_features=768, out_features=2, bias=True)
)
tensor([[  101, 14108,  6764,  ...,     0,     0,     0],
        [  101,  2009, 22139,  ...,     0,     0,     0],
        [  101,  2139, 16429,  ...,     0,     0,     0],
        ...,
        [  101, 16999,  2000,  ...,     0,     0,     0],
        [  101,  5678,  1010,  ...,     0,     0,     0],
        [  101,  2862,  1997,  ...,     0,     0,     0]])
…
