…
MultiLabelBinarizer(classes=['T1003.001', 'T1005', 'T1012', 'T1016',
                             'T1021.001', 'T1027', 'T1033', 'T1036.005',
                             'T1041', 'T1047', 'T1053.005', 'T1055',
                             'T1056.001', 'T1057', 'T1059.003', 'T1068',
                             'T1070.004', 'T1071.001', 'T1072', 'T1074.001',
                             'T1078', 'T1082', 'T1083', 'T1090', 'T1095',
                             'T1105', 'T1106', 'T1110', 'T1112', 'T1113', ...])
BertForSequenceClassification(
  (bert): BertModel(
    (embeddings): BertEmbeddings(
      (word_embeddings): Embedding(1124, 32, padding_idx=0)
      (position_embeddings): Embedding(512, 32)
      (token_type_embeddings): Embedding(16, 32)
      (LayerNorm): LayerNorm((32,), eps=1e-12, elementwise_affine=True)
      (dropout): Dropout(p=0.1, inplace=False)
    )
    (encoder): BertEncoder(
      (layer): ModuleList(
        (0-4): 5 x BertLayer(
          (attention): BertAttention(
            (self): BertSelfAttention(
              (query): Linear(in_features=32, out_features=32, bias=True)
              (key): Linear(in_features=32, out_features=32, bias=True)
              (value): Linear(in_features=32, out_features=32, bias=True)
              (dropout): Dropout(p=0.1, inplace=False)
            )
            (output): BertSelfOutput(
              (dense): Linear(in_features=32, out_features=32, bias=True)
              (LayerNorm): LayerNorm((32,), eps=1e-12, elementwise_affine=True)
              (dropout): Dropout(p=0.1, inplace=False)
            )
          )
          (intermediate): BertIntermediate(
            (dense): Linear(in_features=32, out_features=37, bias=True)
            (intermediate_act_fn): GELUActivation()
          )
          (output): BertOutput(
            (dense): Linear(in_features=37, out_features=32, bias=True)
            (LayerNorm): LayerNorm((32,), eps=1e-12, elementwise_affine=True)
            (dropout): Dropout(p=0.1, inplace=False)
          )
        )
      )
    )
    (pooler): BertPooler(
      (dense): Linear(in_features=32, out_features=32, bias=True)
      (activation): Tanh()
    )
  )
  (dropout): Dropout(p=0.1, inplace=False)
  (classifier): Linear(in_features=32, out_features=50, bias=True)
)
tensor([[  2,  61, 805,  ...,   0,   0,   0],
        [  2,  50, 790,  ...,   0,   0,   0],
        [  2,  43,  45,  ...,   0,   0,   0],
        ...,
        [  2,  62, 803,  ...,   0,   0,   0],
        [  2,  50, 792,  ...,   0,   0,   0],
        [  2,  62, 803,  ...,   0,   0,   0]])
tensor([[0., 0., 0.,  ..., 0., 0., 0.],
        [0., 0., 0.,  ..., 0., 0., 0.],
…
