…
2  It spreads to Microsoft Windows machines using...      T1210
3                   SMB exploitation via EternalBlue      T1210
4                 SMBv1 Exploitation via EternalBlue      T1210
5  has the capability to exploit SMBv1 via the we...      T1210
6                      SMB copy and remote execution      T1570
7  This thread is then used to execute the SMB co...      T1570
8                      SMB copy and remote execution      T1570
9                      SMB Copy and Remote Execution      T1570
BertForSequenceClassification(
  (bert): BertModel(
    (embeddings): BertEmbeddings(
      (word_embeddings): Embedding(31090, 768, padding_idx=0)
      (position_embeddings): Embedding(512, 768)
      (token_type_embeddings): Embedding(2, 768)
      (LayerNorm): LayerNorm((768,), eps=1e-12, elementwise_affine=True)
      (dropout): Dropout(p=0.1, inplace=False)
    )
    (encoder): BertEncoder(
      (layer): ModuleList(
        (0-11): 12 x BertLayer(
          (attention): BertAttention(
            (self): BertSelfAttention(
              (query): Linear(in_features=768, out_features=768, bias=True)
              (key): Linear(in_features=768, out_features=768, bias=True)
              (value): Linear(in_features=768, out_features=768, bias=True)
              (dropout): Dropout(p=0.1, inplace=False)
            )
            (output): BertSelfOutput(
              (dense): Linear(in_features=768, out_features=768, bias=True)
              (LayerNorm): LayerNorm((768,), eps=1e-12, elementwise_affine=True)
              (dropout): Dropout(p=0.1, inplace=False)
            )
          )
          (intermediate): BertIntermediate(
            (dense): Linear(in_features=768, out_features=3072, bias=True)
            (intermediate_act_fn): GELUActivation()
          )
          (output): BertOutput(
            (dense): Linear(in_features=3072, out_features=768, bias=True)
            (LayerNorm): LayerNorm((768,), eps=1e-12, elementwise_affine=True)
            (dropout): Dropout(p=0.1, inplace=False)
          )
        )
      )
    )
    (pooler): BertPooler(
      (dense): Linear(in_features=768, out_features=768, bias=True)
      (activation): Tanh()
    )
  )
  (dropout): Dropout(p=0.1, inplace=False)
  (classifier): Linear(in_features=768, out_features=50, bias=True)
)
tensor([[  102,  3017,  2737,  ...,     0,     0,     0],
        [  102, 13661,   137,  ...,     0,     0,     0],
        [  102,  3740,  7551,  ...,     0,     0,     0],
        ...,
        [  102, 16454,   147,  ...,     0,     0,     0],
        [  102, 11564,   453,  ...,     0,     0,     0],
        [  102,  1834, 30118,  ...,     0,     0,     0]])
…
