…
| loaded 776 examples from: ../data/output/multi/MLM-bin/valid
| NO mask whold words
| loaded 1299 examples from: ../data/output/multi/KE1_0/head/valid
| loaded 1299 examples from: ../data/output/multi/KE1_0/tail/valid
| loaded 1299 examples from: ../data/output/multi/KE1_0/negHead/valid
| loaded 1299 examples from: ../data/output/multi/KE1_0/negTail/valid
| loaded 1299 examples from: ../data/output/multi/KE1_0/head/valid
| loaded 1299 examples from: ../data/output/multi/KE1_0/tail/valid
MLMdata 56 KEdata 1299
RobertaModel(
  (decoder): RobertaEncoder(
    (sentence_encoder): TransformerSentenceEncoder(
      (embed_tokens): Embedding(50265, 768, padding_idx=1)
      (embed_positions): LearnedPositionalEmbedding(514, 768, padding_idx=1)
      (layers): ModuleList(
        (0-11): 12 x TransformerSentenceEncoderLayer(
          (self_attn): MultiheadAttention(
            (out_proj): Linear(in_features=768, out_features=768, bias=True)
          )
          (self_attn_layer_norm): LayerNorm((768,), eps=1e-05, elementwise_affine=True)
          (fc1): Linear(in_features=768, out_features=3072, bias=True)
          (fc2): Linear(in_features=3072, out_features=768, bias=True)
          (final_layer_norm): LayerNorm((768,), eps=1e-05, elementwise_affine=True)
        )
      )
      (emb_layer_norm): LayerNorm((768,), eps=1e-05, elementwise_affine=True)
    )
    (lm_head): RobertaLMHead(
      (dense): Linear(in_features=768, out_features=768, bias=True)
      (layer_norm): LayerNorm((768,), eps=1e-05, elementwise_affine=True)
    )
  )
  (classification_heads): ModuleDict()
  (ke_heads): ModuleDict(
    (wikiData): RobertaKnowledgeEmbeddingHead(
      (relation_emb): Embedding(822, 768)
    )
  )
)
| model roberta_base, criterion MLMetKELoss
| num. model params: 125327963 (num. trained: 125327961)
| training on 1 GPUs
| max tokens per GPU = None and max sentences per GPU = 3
checkpoint_path: ../data/keplerModels/KEPLERforNLP.pt
| loaded checkpoint ../data/keplerModels/KEPLERforNLP.pt (epoch 10 @ 0 updates)
| loading train data for epoch 10
| loaded 14727 examples from: ../data/output/multi/MLM-bin/train
…
